docs/lunarlander_policy.pt (torch, 72857 bytes, 6 tensors)

net.0.weight f4 [128, 4]
00000000: 33b8 c33e 5f3a d43e 4620 f1bd d52d eb3e
00000010: 7155 e0bd 5300 cf3d 5d64 79be 4f25 963e
00000020: 3e2b e13e b1bc bcbe 3319 df3e f8e3 c33d
00000030: ed5a bd3e b922 8d3d a08a 763e 1031 93bd
00000040: b424 c53e 53f3 963d d587 6fbe 56ad 013e
00000050: 3163 6cbe af0e 6fbd b7ad 4fbe aab3 a93e
00000060: 20e5 c9be 50ef 6bbe 2f9b 0fbe a5fb 99be
00000070: 3418 433d 3136 fcbe efa7 e73e 9103 dabe
00000080: 613c c63e 1fb0 ac3d 9f4f 26be 1522 9e3e
00000090: c8fb 9e3d 3075 ce3e cac7 623d acc0 20be
000000a0: bec5 073e 3b24 0dbe c4fc 573e 3633 e53e
000000b0: a1d2 933e 04b5 5fbe ff30 943e 5f17 b83d
000000c0: ca6f 813e 521c 9dbe 75cd fcbe e9eb 43be
000000d0: 9c5b c4be d60e d23e d878 133e cc13 543e
000000e0: 64f7 203e 500e e9bb d174 c83e e350 b7be
000000f0: 60b4 073d 37c9 adbe a88c 1b3e 31a1 32be
00000100: ce4c 1d3e 2693 d0bd 138f d43e 7e0d 99be
00000110: 934f 98be 0d4e 98be f08f e53e 5d63 293e
00000120: 89ed f63e 3e70 d4be a526 ffbe 3a1b c7be
00000130: d3e3 acbe af02 4d3e 157f 363e 75da d43e
00000140: 1f5d 84be 46cf aebe 0ce8 873e ecb2 4ebe
00000150: 09fb 9a3e c13d f5bd f042 933e 2fef c5be
00000160: adc7 81be 3a48 1b3e b2d0 d73d 097b 03be
00000170: aa3e 993e 34ae ad3e 7887 babe 8fd0 87be
00000180: d4e0 ea3e 215a 2abe 432b 36be c9df f8be
00000190: 059b 92be c599 fb3d c066 8cbd 1f6d b9be
000001a0: a24a 403c f3de aebe 392e d9be a1ed 8cbe
000001b0: 5783 dfbe 680b a2be d22a ff3e 42b8 bd3d
000001c0: 96ca 1d3e f3d6 edbe 3a3e a8be 7b91 2cbe
000001d0: 8855 9f3d 395d e1be 4bc6 5cbe 3084 99be
000001e0: 0345 233b 9296 3cbe 5945 0dbd 3c2f aebe
000001f0: d099 afbe d8a1 95be 44be 2fbe a7b7 c9be
00000200: 62f9 d53e a312 ccbd 7839 dc3e 955d 1e3e
00000210: 90a6 d8be ddd9 b13e 8d30 0cbe d570 46be
00000220: d3f6 d4be 0c6c ffbe 553c 133e c5d2 dcbd
00000230: 5f9d 483e 736b d2be 6e74 bd3e 03d3 bbbe
00000240: 0dcb b3bd 10f6 cf3d 9f72 843e f763 cf3e
00000250: c11a e93e 51c9 cabe 1f04 013e 3ca8 5cbe
00000260: a976 5dbd 9712 bfbe 070a e93e 8d43 bcbe
00000270: 6697 883e 3221 313e a042 253e 04d3 88be
00000280: 7981 e83e f5e8 e03d b1eb 823d 9c35 e2be
00000290: 20fa 563e 9f51 9bbd fbfe 6bbe 459f db3e
000002a0: 3587 e63d d91e 8dbe fe2c 82be 9c36 d0bc
000002b0: 6ce2 8e3e 8671 03be cd06 92be 009d 2ebe
000002c0: bf5e bfbe 8180 363e 5edb c63e d1aa f0be
000002d0: 6646 eb3d b84b 843e ab8b b93d e4ec 38be
000002e0: 7cb7 853e e0c2 853e 44d4 3d3e 3208 b1bd
000002f0: d0c2 08be e061 603d dd2f b1bd a89f 19be
00000300: f4d1 a33e e15c da3e 02cd 51bd 8319 dfbd
00000310: b33d fd3b cc76 fbbc 9757 f53d 214f 113e
00000320: 91d4 e8be 0c9b 3dbe 61d8 d73e cae3 473e
00000330: e52f d1bc 97a6 9abe f593 9cbe 1b32 e5be
00000340: b0f3 26be 2e59 2c3e 0f46 a33e 9c19 6d3e
00000350: 204e e2be 6332 99be 83e0 a4bd 9a72 f63e
00000360: 1821 943d d097 04be 7cd2 533e e802 43be
00000370: 37f3 a4be 7d39 bc3e bbe5 68be 7fcf d1bd
00000380: 7eab febe 5255 ab3e 58f4 c13e f498 3a3e
00000390: 4519 b2be 8e69 fbbe 726a d0be 9785 bd3e
000003a0: 9a55 753e 3c15 d63e 8129 863e 1d6f 043e
000003b0: 96cd d0bb 605d c3be 8ce4 dabe 95e6 eebe
000003c0: ec8e 523e b397 7abe 59a5 cebd 9f93 93be
000003d0: f5f5 bbbd f22e b4be a2f3 a6be ed50 2a3e
000003e0: d250 18be a395 9c3e 2d5d 25be 7622 babe
000003f0: 3205 b1bd 5e8a 76be b00c 1dbe 6862 f4be
0.3822647 0.41450784 -0.11773734 0.45933405 -0.10953797 0.10107484 -0.24354692 0.2932534
0.43978304 -0.3686271 0.43573913 0.09564966 0.36983433 0.068913884 0.24076319 -0.07187092
0.38504565 0.07370629 -0.2339166 0.12663779 -0.23084714 -0.058363613 -0.2028111 0.33144885
-0.3943262 -0.23040509 -0.14024042 -0.30074802 0.047630504 -0.49260095 0.4524531 -0.42580846
0.3871794 0.0843203 -0.1624131 0.30885378 0.07762867 0.40323782 0.055366315 -0.15698498
0.13259026 -0.13783352 0.21092516 0.44765633 0.28871635 -0.21846396 0.2894363 0.08988833
0.252806 -0.3068567 -0.493755 -0.19132961 -0.38351142 0.41026944 0.14401567 0.20710677
0.15719372 -0.007112302 0.39151624 -0.358039 0.033131003 -0.33942577 0.15190375 -0.17444302
0.1536133 -0.10184316 0.41515407 -0.29893106 -0.2974821 -0.29747048 0.44836378 0.1654181
0.482281 -0.41491884 -0.4983417 -0.3888796 -0.33767566 0.20020555 0.17821915 0.4157292
-0.25852296 -0.34142512 0.26544225 -0.20185441 0.3026965 -0.11974669 0.28762007 -0.38659045
-0.25347653 0.15164271 0.10537852 -0.12839903 0.2993062 0.3392197 -0.3643148 -0.26526305
0.45874655 -0.16635944 -0.1778994 -0.48608235 -0.28633896 0.122851886 -0.068555355 -0.36216065
0.011736544 -0.34154472 -0.42418078 -0.27525046 -0.43654892 -0.31649327 0.49837357 0.0926366
0.15409312 -0.46453056 -0.32859975 -0.16852371 0.07779986 -0.44016436 -0.21560018 -0.29983664
0.002491296 -0.18416813 -0.034489963 -0.34020412 -0.34297037 -0.2922504 -0.17162424 -0.39397928
0.41791826 -0.09964492 0.43012595 0.15465386 -0.42314577 0.3473653 -0.13690396 -0.1937898
-0.41594562 -0.4988712 0.14378484 -0.107823886 0.19591282 -0.41097602 0.3700289 -0.36684427
-0.08778963 0.101543546 0.258687 0.40505955 0.45528224 -0.39606717 0.12599228 -0.21548551
-0.05406824 -0.3731887 0.45515463 -0.36770287 0.26678008 0.1729782 0.16138697 -0.26723492
0.4541128 0.10981933 0.06392611 -0.44181526 0.20993853 -0.07583927 -0.23046486 0.4289495
0.112562574 -0.27562597 -0.2542495 -0.025416665 0.2790712 -0.12836275 -0.28520814 -0.17052078
-0.37376973 0.17822458 0.3883924 -0.47005323 0.11488037 0.2583902 0.09059843 -0.18059117
0.2611655 0.2612524 0.18538004 -0.08644141 -0.13355565 0.05478084 -0.08651707 -0.1500231
0.3199612 0.42648986 -0.0512209 -0.10893538 0.0077283024 -0.030696295 0.11979597 0.14190342
-0.45474675 -0.18516177 0.42157272 0.19520488 -0.025535533 -0.30205223 -0.30581632 -0.4476479
-0.16303897 0.16830894 0.31889388 0.231543 -0.4420023 -0.29921255 -0.08050635 0.4813431
0.07232875 -0.12948537 0.20685762 -0.19044077 -0.32216808 0.3676261 -0.22743885 -0.10244655
-0.49740213 0.33463532 0.37881732 0.1822241 -0.34784904 -0.4910397 -0.4070621 0.37015983
0.23958436 0.41813076 0.2620354 0.12933011 -0.006372164 -0.38157177 -0.42752492 -0.46660295
0.20562333 -0.24471931 -0.10090131 -0.28823563 -0.09177772 -0.35192066 -0.32607752 0.16632433
-0.1487458 0.30582914 -0.16148825 -0.36354417 -0.08643569 -0.2407622 -0.15336871 -0.47731328

net.0.bias f4 [128]
00000000: d77e 223e f687 c3be 7dda a0be b65f d4be
00000010: db43 e03e 5288 f2be 885f c03e 0dc7 8dbc
00000020: 5f1a 6cbd 3a8f 9f3e 9320 41bd f2f0 9f3e
00000030: 3a38 b83e 0443 debe 670f 423e 3d58 c13d
00000040: 9a99 db3d 21e6 973d f85f 0d3e 5053 77be
00000050: fee5 7bbd 0d81 f13e e056 ab3e 146a 90bc
00000060: 0aa3 efbe 0e26 b43c 035f aebe a606 d03e
00000070: c0d2 9bbe 8318 0fbd b884 e2bd 4613 b73d
00000080: 7ea6 ef3e deb2 3d3d 494d 943e 5aa9 c73e
00000090: 80a1 ce3e c73e 31be 9a95 e6bd 68e7 753e
000000a0: 8c0f 0cbe 3b5b 6f3e bd2a dfbd a2cc adbe
000000b0: 6ba4 4f3e c071 983d c269 633e d694 fd3e
000000c0: 9c53 af3e 1988 f33e b98e e73c c32a dcbe
000000d0: bf64 b3be cd6d 9fbe 7e99 e1be 9e3f 7ebe
000000e0: 54aa ebbe cec8 edbe a435 9abe 17db fcbe
000000f0: d003 9dbe ca50 403e 24d0 d63e 232e 18be
00000100: 0f88 14be 9966 893e 2085 7dbe 5ba4 70be
00000110: e9b4 9e3e afbb dfbe 09b8 693d bf2a e13e
00000120: f1cb b23d 80a5 0b3e d021 95be 8bf0 d0bb
00000130: 4730 d73c fa63 f73d caf7 453e b507 de3e
00000140: f9c7 c2be 8267 3d3c 5843 7fbe 343d cabe
00000150: 7e9b 17bd 92b9 e2be 07ef b13e 7fee 623d
00000160: 29c6 8abe fb4f 853e 0824 f2be 7af1 46be
00000170: 054d c7bd f17a d9be 0bd0 a1be ab3e a5bd
00000180: e3ee c03e f913 f73e 0c87 a33e 20af 98be
00000190: 601f a8be 84e0 de3e 70fe 323e 272b 683c
000001a0: 0bdd 853d af66 cdbe c100 2bbe 3f6e f63e
000001b0: a943 ffbd 4d5a dfbc 4624 d5be 9eac 8ebe
000001c0: 1f2e 4ebc f076 9fbe d8c6 80bd 21cb 503e
000001d0: d469 fabe 8c6e 1a3e 511a aabe a51a 7abe
000001e0: f7db 413e 659e cc3e 3f81 0bbe 1c36 52be
000001f0: fce0 e8be a14c 85be 8e5d e0be 6fd8 e8bd
0.15868698 -0.38189667 -0.31416693 -0.41479272 0.4380177 -0.4736963 0.37572885 -0.017306829
-0.057642337 0.3116396 -0.047150206 0.31238514 0.35980397 -0.43410504 0.18951188 0.09440658
0.107226565 0.074169405 0.1380614 -0.24152875 -0.061498635 0.4716877 0.33464718 -0.017628707
-0.46804076 0.021990802 -0.34056863 0.40630072 -0.30434227 -0.034935486 -0.1106047 0.08939223
0.4680671 0.04631316 0.28965214 0.38996392 0.4035759 -0.17309104 -0.11259003 0.24014056
-0.13677806 0.23374645 -0.108968236 -0.33945185 0.20277564 0.07443571 0.22208312 0.49527615
0.34243476 0.47564772 0.028266298 -0.43001375 -0.350378 -0.3113846 -0.44062418 -0.24828956
-0.46028388 -0.46442264 -0.3011905 -0.49385902 -0.3066697 0.18780819 0.41955674 -0.1486135
-0.14505027 0.26836088 -0.24757814 -0.23500197 0.30997398 -0.4369788 0.057060275 0.43977925
0.08730305 0.13637352 -0.2912736 -0.006376331 0.026268138 0.12079616 0.19332805 0.43365255
-0.38043192 0.011560323 -0.24928033 -0.3949982 -0.037013523 -0.44282204 0.34752676 0.05540323
-0.2710431 0.26037583 -0.47293115 -0.19428053 -0.09731487 -0.4247661 -0.31604037 -0.080685936
0.37682256 0.48257425 0.3193897 -0.2982111 -0.32836437 0.43530667 0.17479873 0.014170445
0.06536301 -0.40117404 -0.16699506 0.48130986 -0.12464077 -0.027264738 -0.41629237 -0.2786607
-0.012584238 -0.3114543 -0.062879264 0.20389988 -0.48908865 0.15081233 -0.33223203 -0.24424227
0.18931566 0.39964595 -0.13623522 -0.20528454 -0.4548415 -0.26035026 -0.43821377 -0.113694064

net.2.weight f4 [128, 128]
00000000: 4b96 8c3c a642 a9bd 5c9d 9c3d c623 633d
00000010: 26ab b3bd 20b9 2dbd 5538 e73c 3da9 96bc
00000020: ef92 2bbc 5477 23bd c9df 8e3d 768e 4fbd
00000030: 67c1 933d 60e0 ba3b 288e 913c 66cc 8b3d
00000040: 289b 6ebc 04bc 52bd 8944 71bc 5612 923d
00000050: 0d99 86bd 6238 a23c fe03 b2bd 52d1 3d3d
00000060: f8c2 053d e08f 753b 6e62 1b3d 9a6f 9cba
00000070: a03e 473d ff1d 90bd 48aa 54bc 52e3 1f3d
00000080: 4c90 b13d 5e6b 383d 0c2a 86bd e65b 893d
00000090: 5cd9 abbc 2eb2 9bbc b796 a4bd d8f5 63bc
000000a0: 310a 803d 91f7 323c fb2c 55bd 38e1 de3c
000000b0: dc2b e8bc 0345 a53d d71d 9dbd ffa5 eabc
000000c0: 98c9 aebd 2cac 13bd 8959 dc3c 7b40 ae3d
000000d0: 7948 733c 9707 af3d d4aa 8d3c 2217 513d
000000e0: c91d 913d 46e5 943d 42a4 4abd 676d a63d
000000f0: 7e4f 5b3d 93ed 2ebd 1dc4 2cbd 4bd4 97bd
00000100: 8f66 ac3c 4dbb 94bd 1eef 183d 74a9 e43c
00000110: 1e45 9dbd cc4f c53c ed3b f8bb 4f2b 1f3d
00000120: eabb 4f3d 9b6f b5bd 3b03 a63d 77cf 973d
00000130: 9c0c 103d 212f a7bd 2eb2 02bd 0292 d4bc
00000140: 2b04 bcbc dd7b 4b3d 83fc 033d 5566 8f3d
00000150: 8597 07bd 48ae f33c 66b7 fb3c 2f2e 98bd
00000160: a497 afbd aec0 41bd d8c6 773d 226c aabd
00000170: 82e3 9ebd 72d0 4a3d 9254 433d d60b 923d
00000180: 94a8 88bd 2579 86bd 92b8 393d 7d6b 9d3d
00000190: 2e9f 583d 43c5 4d3c 38a3 ee3c 6fcf ab3d
000001a0: c396 69bd 2c29 27bd ee3b 7d3d 9270 7abd
000001b0: 7789 48bd d5ce 833d 6076 e43c eb03 e03c
000001c0: 5572 19bd c0e1 9fba c1ac a53d 894d 59bd
000001d0: 002c 363a 26fb 293d 1cb2 7bbd f33f ae3d
000001e0: 02b8 39bd 3c98 b7bc f0e9 c3bc fcec 6bbd
000001f0: bca0 b1bd a8be 473d 5c5e c03c f88a a9bd
00000200: 4adc 61bd e9e9 b23d 4662 0a3d 92e6 103d
00000210: 2edd 52bd 62b7 1ebd 70f7 5dbc 693a 89bc
00000220: 3c8d 72bd 6cf3 e93b 06c6 223c 0bc8 17bc
00000230: bae7 523c 877e 0fbd be53 b53c f554 0a3d
00000240: 4d9c 43bd c299 b4bd 7127 3e3d 401d b13c
00000250: 1ed5 39bd db33 ae3d f58d 24bd 5eb5 6f3d
00000260: 9a98 303d 5e2d 9bbd 5e7f 693d 40af a4bd
00000270: 2293 48bd a619 65bc 49bd 7abd 0f22 af3d
00000280: 8e4e 82bc e4b2 093d cbc6 a0bd b004 503d
00000290: a5a6 d2bc 3ab2 89bd b9e3 473c 67d0 2d3d
000002a0: 0093 983d ab12 54bd 2929 32bd 88f4 893c
000002b0: 6306 ba3c 9ee8 073d c211 473d 57c6 a2bc
000002c0: 7dc5 493d bf91 883d cacd c0bc 5474 7e3d
000002d0: 7ae2 303d 29ab 9f3d b4bc 4dbd 878d 3bbd
000002e0: e45b d1bc 40eb 923b 725d 573d 7931 4fbd
000002f0: 29ab 333d fa44 f8bc 6dc3 583d e4f8 bfbb
00000300: b396 9ebd 9e24 45bd 7ed4 86bd f95f 2d3d
00000310: 4a58 72bd d39c 1abc 10b6 9e3c ef80 3cbd
00000320: 5573 cc3c e416 b1bd f9ff 81bd 36db a5bd
00000330: cadd debc 17be 00bd 1281 523c fc24 80bc
00000340: 1a30 2a3d 5681 a43d 72e5 013d a8a1 0ebd
00000350: 90b7 acbd 4d1b f73c 9245 34bd ab25 3d3d
00000360: b6b7 6a3d c111 153d 35da a93d fed3 a73d
00000370: d883 993c 6b0e 85bd adf2 9c3d 6fda 29bd
00000380: b8a6 2bbd 6e37 983d 2dd5 8b3d 8e8c cc3c
00000390: 4229 603b a75b 96bd 11a2 24bc d9dc ab3d
000003a0: ad28 ad3c f0f9 f73b 7224 a5bc e539 fabc
000003b0: 7226 5c3d 709c b23b a71e 6e3d 2429 80bc
000003c0: ab33 1b3d 4c70 153d 0776 4b3c 23bd 5f3d
000003d0: bade 623d b365 a93d cf29 8b3d e824 b9bc
000003e0: 586f 93bd 0b6d 8b3c d868 bdba 94db bcbc
000003f0: 5930 8bbc c038 883b 7732 803d 37b5 d43c
0.017161509 -0.08264665 0.076472014 0.055454038 -0.08772878 -0.042412877 0.028225103 -0.018391246
-0.010472043 -0.039908722 0.069762774 -0.05067297 0.07214623 0.005703017 0.01776798 0.06826095
-0.014563359 -0.051448837 -0.014725813 0.071324036 -0.06572161 0.019802276 -0.08692168 0.0463422
0.03265664 0.003746979 0.037935667 -0.0011935115 0.04864371 -0.07036971 -0.012980051 0.03903515
0.086701006 0.04502427 -0.065509886 0.06706981 -0.020977668 -0.019005861 -0.08036559 -0.013913594
0.06251944 0.010923282 -0.05204485 0.027207002 -0.028341226 0.080698036 -0.07671707 -0.028643606
-0.08534545 -0.036052868 0.026898162 0.085083924 0.014848822 0.085463695 0.017293371 0.05104745
0.07085759 0.07270293 -0.049473055 0.081263356 0.053542607 -0.042707037 -0.042179216 -0.074135385
0.021044997 -0.07262287 0.037337415 0.027912833 -0.07679199 0.024085902 -0.007575503 0.03885966
0.05071632 -0.08859178 0.08106085 0.07412618 0.035168275 -0.08163286 -0.031908207 -0.025948528
-0.022951206 0.049678672 0.032223236 0.0700194 -0.033103485 0.02974619 0.0307271 -0.07430684
-0.08573845 -0.047302894 0.060492367 -0.08321406 -0.077582374 0.049515195 0.047688074 0.07131164
-0.06672779 -0.06566075 0.045342036 0.076865174 0.05288618 0.012559238 0.029130563 0.08389174
-0.057028543 -0.04081075 0.06182473 -0.06114251 -0.04895922 0.064359345 0.027888477 0.027345618
-0.03746255 -0.0012198016 0.08089591 -0.05305246 0.00069493055 0.04149928 -0.061449155 0.08508291
-0.0453415 -0.022411458 -0.023915261 -0.057599053 -0.08673236 0.04876581 0.023482494 -0.08278459
-0.055141725 0.08736021 0.033785127 0.03537614 -0.051480465 -0.038749106 -0.013547763 -0.016751485
-0.059216723 0.007139614 0.009934908 -0.009264003 0.012872631 -0.035032775 0.022134658 0.033772428
-0.047756482 -0.088183895 0.046424333 0.021620393 -0.04536926 0.085059844 -0.040174443 0.058522575
0.043114282 -0.075770125 0.057006232 -0.08041239 -0.04896844 -0.013983166 -0.061215673 0.08551418
-0.015906598 0.03361787 -0.07850417 0.05078572 -0.025714228 -0.06723447 0.012200289 0.042435076
0.07449913 -0.051775616 -0.043496285 0.016840234 0.022708124 0.033180825 0.04860092 -0.019869966
0.049260605 0.06668424 -0.023535628 0.062122658 0.043184735 0.07796318 -0.05022879 -0.045789268
-0.025556512 0.0044836104 0.05257935 -0.05058429 0.043864403 -0.030306328 0.052920748 -0.0058585275
-0.07743587 -0.048130624 -0.065834984 0.042327855 -0.05916623 -0.009436804 0.019373924 -0.0460214
0.024957338 -0.08646944 -0.06347651 -0.08098452 -0.027205367 -0.031431284 0.012848156 -0.015642636
0.04154978 0.08032481 0.031712957 -0.034822136 -0.08433449 0.030164385 -0.04401166 0.0461785
0.057304107 0.036393885 0.08293573 0.08194731 0.018739626 -0.06496891 0.07663474 -0.04146808
-0.041907042 0.074324474 0.068277694 0.024969365 0.003420428 -0.073417 -0.010048405 0.08391733
0.02113756 0.0075676367 -0.02015898 -0.030545184 0.0537476 0.0054507777 0.0581347 -0.015644617
0.03789107 0.036484048 0.012418277 0.054623734 0.05538819 0.08271351 0.06795084 -0.022600606
-0.071989715 0.01701977 -0.0014450802 -0.023053922 -0.016990827 0.0041571558 0.062596254 0.025965316

net.2.bias f4 [128]
00000000: e035 6ebc c92a 1bbc 55b4 83bd 1057 aabc
00000010: 4d6b 253d e9ba afbd 83d4 353c 6c30 b03d
00000020: 4547 1f3d b8c5 2f3d 2946 b7bc a512 bebb
00000030: 6fd3 9cbd fbe0 27bd 6c23 aa3c 48b3 e43c
00000040: 2dc3 573d a84a 47bd 5a29 dd3c c8dd 4bbd
00000050: fcff 87bd 872c 08bd db38 76bd 57eb 873c
00000060: 93fa 5c3c 8bc5 653d da62 453d 2428 8d3c
00000070: 9dc4 073d f58e de3c ce2c abbd c374 2bbd
00000080: d483 99bd 7dba 55bd d9ab 863c 17b6 a83d
00000090: 3c8b 7e3d 9f20 16bd cf2d a03c 70a2 753d
000000a0: eb9b a23c 13ff 95bd 077e 433c 5779 063d
000000b0: 42d0 443c a0d7 a23d f1a9 933d 0e92 49bd
000000c0: 2950 8d3d 0dd0 a2bd c97e 51bd e138 0d3d
000000d0: 4399 643b fa27 9e3d a861 4c3d 86d3 99bc
000000e0: 85ef ab3d 40e9 81bd 9a24 9a3c db98 de3c
000000f0: 2024 8b3d 4969 b23d 7ed0 303d 9c66 2dbd
00000100: f12b 8f3d e0b7 7c3d ceb9 f4b9 570b 843d
00000110: d0b3 663c 8a2b d8bb 7087 e63c f64e 9fba
00000120: d4ba b1bc 8cac 333c 90a7 38bb 91bc 78bd
00000130: 39a1 83bd d510 e23c ea09 13bd c8a3 253b
00000140: 05a7 a03d 5d52 863d 3e46 443d 280a 3c3d
00000150: 22ae 703d a40b 77bd 767a a43d 9046 8bbd
00000160: aa9a 6abd c1e7 0cbd 98ee b03d 685a 4e3d
00000170: 55fd bd3c bfd5 473d 2ab7 aebd 25fe b0bd
00000180: 55b1 cf3c a9fe d8bc 4f92 313d 42b8 81bd
00000190: 57af a63d 66ea 9dbd 08ac 323d c54b 3a3d
000001a0: 6f84 46bd 38b7 993d f747 3d3d abd1 29bd
000001b0: 2716 2abd 3cf5 8b3d 2c46 bebc bf31 063c
000001c0: 5aff 1a3d 343f 313d 27b5 2fbd 1826 8f3d
000001d0: 3851 e33c 96f1 eb3c c139 28bd 351e 2e3d
000001e0: b269 46bc 760f 823d 2793 363d 540c 883d
000001f0: c008 36bc 120d 703d e67f 883d edec ae3c
-0.014539212 -0.00947065 -0.0643088 -0.020793468 0.040385533 -0.08580572 0.01109803 0.08602986
0.038886327 0.04291317 -0.022372322 -0.0058005624 -0.07657515 -0.040986042 0.020768844 0.02791752
0.05267637 -0.048655182 0.026997257 -0.049772054 -0.06640622 -0.03324559 -0.060112815 0.016591711
0.013487476 0.056096595 0.048189975 0.017231055 0.03314649 0.027167777 -0.08358155 -0.0418594
-0.07495847 -0.052179802 0.016439365 0.08237856 0.062144503 -0.036652204 0.019553093 0.059969366
0.019849738 -0.07324042 0.011931903 0.032830562 0.012012543 0.079512835 0.07210148 -0.049211554
0.06900055 -0.07949839 -0.051146302 0.034478072 0.003488139 0.07722469 0.04989782 -0.01877762
0.08395294 -0.06343317 0.018816281 0.027172497 0.06794 0.08711488 0.043167584 -0.042334184
0.06990803 0.061698794 -0.00046677742 0.064474754 0.014080957 -0.006596987 0.028140754 -0.001215427
-0.021695532 0.010966431 -0.0028176047 -0.060726706 -0.06427235 0.027595917 -0.035898127 0.0025274623
0.078443564 0.06558678 0.04791855 0.045908123 0.058759816 -0.060313836 0.0803117 -0.06800568
-0.057276405 -0.034400705 0.08639258 0.050379187 0.023192087 0.04878783 -0.085310295 -0.08642224
0.025353113 -0.026488619 0.04335242 -0.063339725 0.08138912 -0.077107236 0.043621093 0.045482416
-0.048466142 0.07505649 0.04621121 -0.04145972 -0.041525032 0.06833884 -0.02322682 0.008190571
0.03784118 0.043273166 -0.04289737 0.06989688 0.027748689 0.02880172 -0.041070703 0.042509276
-0.012110161 0.06350605 0.04457393 0.066429764 -0.011110485 0.058606215 0.0666502 0.02135321

net.4.weight f4 [2, 128]
00000000: a368 89bb 0a73 66bd 97ff 3dbd 13ea 513d
00000010: 3098 55bd fc0a 29bd 3940 3e3d f2d7 3abd
00000020: 162f 8abd a636 953c 1be3 193d fce4 a2bd
00000030: 9cb3 3d3c 97cd 8dbd 1a84 1a3d a542 3d3d
00000040: 19c7 e63c b778 b03d 2d3d 98bc 5f87 07bd
00000050: 5868 ca3c bb12 e03c 56ca 21bd f7db 64bd
00000060: cd13 d3bc ddad 1b3d 318e 203d 4953 20bd
00000070: 925e 953d 80c2 86bd f011 28bc a1bf a93c
00000080: a092 80bd e47f a43d 2545 2dbd 11b6 523d
00000090: a13e 073b 169d 47bd 1cf2 a73d 8055 18bc
000000a0: 4085 843c c4d9 aa3d 28f8 abbd 27eb 8b3d
000000b0: 63be 34bd dd9f 94bd f9b4 463d 255a e7bc
000000c0: 843f 90bd 588a 2ebd bd84 683d d456 143d
000000d0: 8b03 aebb a4c2 3c3d 52fe 623c fe0b 8abd
000000e0: d155 903c 9fe5 803d 9073 2bbc 9e46 3bbc
000000f0: caef af3d 235c c3bc 6ab7 ab3d 0724 9a3d
00000100: 554c 8d3d 91b2 b63c 98d0 da3c 3c93 b23c
00000110: 10ed a5bd a90f 0fbd 0603 4bbd 836f 30bc
00000120: 3b54 44bd b8bd f1bc 2b37 6dbd 13a1 83bd
00000130: 84e3 ea3c 1f0c b13d 6270 0dbd 1523 6bbd
00000140: 7d25 e7bc ffb3 fcbc c7b4 afbd 5f81 a13d
00000150: 9dc2 723d ea46 843d c3e3 35bd be86 80bd
00000160: bd83 ad3d 6a30 5abd 9ad1 93bd 1301 94bd
00000170: 09f5 eb3c f998 4abc 4baf 58bd 4895 983d
00000180: 2645 47bd 506d b23b 5df5 353d ce85 283d
00000190: 4d51 973d c869 33bc a713 3d3d b436 e4bb
000001a0: 74a4 5c3c a06e 61bd 2199 5b3d b78c a23c
000001b0: c05b 943c 1d70 06bc ee12 103d 81b3 afbd
000001c0: 0dac 933d 83e0 8d3d 9cd9 3e3d 39e6 debb
000001d0: f5d4 abbd 5bcb c8bc 006e 91bd 8c04 34bd
000001e0: 318a 913d 0c64 32bc af77 b03d c4c7 3ebd
000001f0: a69d 22bd 3de0 95bd c809 133d 8503 053d
00000200: 1629 313d 427f 993d face 5c3d 4fb3 a6bd
00000210: 1de5 033a c668 993d 630f 773d 88f6 0e3d
00000220: dba9 2dbd 2bcf 95bd c4a9 af3d 1ceb f1bc
00000230: 923b f53c e0e1 babc 940c f8bc 73b5 093d
00000240: 68ae aa3d 80c5 aabc b3ae 223d aa45 093d
00000250: 3557 74bc cd54 893c b094 f03c 67e2 9c3d
00000260: 055b 0dbd 357b 883d d68f f7bb 14cd 0e3d
00000270: d607 8fbd 16c3 733d 5190 983d bfbc af3c
00000280: 1653 ef3a 0ff9 bd3c 804e 91bd 7a33 9abd
00000290: 83e4 893d af5f a4bd 5f1c 9dbc 79f1 5fbd
000002a0: 80e2 a9bd e2d1 1abd ca10 a637 4387 8bbd
000002b0: 6cb9 89bd 764b 90bd 22c7 26bb 8b09 b7bc
000002c0: 71cd 843d eec3 aebd 9d5c 9dbd 5918 c8bc
000002d0: ecff b63d fc75 a33d 2429 fdbb 7e52 bbbc
000002e0: fdaf 3d3c a063 733b 28de 2b3c d605 17bd
000002f0: 0f7f 5fbb 404a 7f3c 5e61 523d c1ad 5bbd
00000300: 5331 7ebc b29d 3a3d 4447 643d 78f8 473d
00000310: b89d afbc abbb a43c c846 f7bc 1625 953d
00000320: e0e8 5c3d f236 a1bd b991 263d 73b3 b13d
00000330: 30c9 c03c ccee 8fbd a57c 633d a260 743b
00000340: 4f95 cebc 5ea3 133d f7f5 8b3d e542 1f3d
00000350: 5727 8dbd dd01 1b3d 029d 64bd 1b3f a0bd
00000360: 6d90 33bd 769c 3d3d 14e5 863d 0ca3 ca3c
00000370: cdbe 563d e88d abbd 0d7f 34bd 0474 4bbd
00000380: e582 9abd 02cc 60bd 8c04 82bd 62e8 94bd
00000390: 02e9 543c 87bf 28bd f2f3 473b 9aaf 68bc
000003a0: 8c59 8c3b 0f04 9ebd 3c3b 92bd e61c a3bd
000003b0: b758 7a3d 02db 8e3b 25da 98bd 42a0 09bd
000003c0: 2b36 4eba 9255 6fbd ef03 943d 343b 893d
000003d0: d0b7 b93c 8417 70bc aa92 523d 0ab6 ca3c
000003e0: 83be c33b 2ce4 3d3c aaae 99bd f794 dd3c
000003f0: 1c5e fc3c 9ef3 683d 2a8b 223d 8c90 9a3d
-0.004193382 -0.056262054 -0.046386328 0.05124862 -0.05214709 -0.04127024 0.046447966 -0.045616098
-0.06747262 0.018214535 0.0375701 -0.079538316 0.011578467 -0.06923979 0.037723638 0.046206135
0.028171109 0.086167745 -0.018583858 -0.033088084 0.024707958 0.027352681 -0.039499603 -0.055873837
-0.025766278 0.038007606 0.039198104 -0.039141927 0.072934285 -0.06580067 -0.010258183 0.020721259
-0.062779665 0.08032206 -0.04230227 0.051443163 0.0020636695 -0.048733793 0.082004756 -0.009297729
0.01617682 0.08342317 -0.083969414 0.06831961 -0.04412688 -0.07257054 0.048512433 -0.028241226
-0.07043365 -0.042612404 0.056767214 0.03621562 -0.005310481 0.04608406 0.01385458 -0.067405686
0.017619045 0.06293797 -0.010464564 -0.011430411 0.08590658 -0.023847645 0.08384593 0.07526403
0.06899325 0.022301944 0.026710793 0.021798722 -0.08101857 -0.034927044 -0.04956343 -0.010768774
-0.04793189 -0.02950941 -0.05791394 -0.06427207 0.028672941 0.0864489 -0.034531005 -0.057406504
-0.028216118 -0.030847548 -0.085794024 0.07886004 0.05926763 0.06458838 -0.044406664 -0.062757
0.08472393 -0.053268827 -0.07217713 -0.072267674 0.028803365 -0.012365573 -0.052901547 0.07450348
-0.04864993 0.00544516 0.04442345 0.04114323 0.07388554 -0.010950513 0.04616132 -0.006964529
0.013466943 -0.05503714 0.053612832 0.019842489 0.018110156 -0.008205441 0.035174303 -0.085791595
0.072105505 0.06927588 0.046594247 -0.006802347 -0.08390228 -0.02451103 -0.07101059 -0.04394965
0.07106436 -0.010888111 0.08616578 -0.04657723 -0.039701127 -0.07318161 0.035898 0.03247406
0.043252073 0.074949756 0.053908326 -0.08139669 0.0005031394 0.07490687 0.06031741 0.03490308
-0.042398315 -0.07314905 0.08577302 -0.029531054 0.029935632 -0.022812784 -0.030279435 0.03362031
0.083340466 -0.020846128 0.039717387 0.033513702 -0.01491337 0.016764069 0.029367775 0.0766037
-0.03451063 0.06664125 -0.0075549884 0.034863546 -0.069839165 0.05951222 0.07449401 0.021452306
0.0018259014 0.02319005 -0.07095051 -0.075293496 0.06733038 -0.08026063 -0.019178567 -0.054673646
-0.082951546 -0.037797816 1.979656e-05 -0.068129085 -0.067248195 -0.07045643 -0.0025448282 -0.022343418
0.06484497 -0.08533464 -0.0768368 -0.024425672 0.08935532 0.07981488 -0.0077258516 -0.022866484
0.011577603 0.0037138239 0.010489978 -0.0368708 -0.0034102832 0.015581667 0.051362388 -0.0536325
-0.0155146895 0.045560546 0.055732027 0.048820943 -0.02143751 0.020109018 -0.030185118 0.07282464
0.053933024 -0.07871808 0.040666316 0.08676805 0.023533434 -0.07027969 0.055538792 0.0037289043
-0.02521768 0.03604447 0.068340234 0.038882155 -0.06892269 0.037843574 -0.055813797 -0.078245364
-0.043838907 0.04629179 0.06586662 0.02473595 0.052428056 -0.08376676 -0.044066478 -0.049671188
-0.075444974 -0.054882057 -0.063485235 -0.07270886 0.0129950065 -0.04119828 0.0030510393 -0.014202023
0.0042831358 -0.07715618 -0.07140204 -0.07964496 0.06111976 0.004359604 -0.07463483 -0.0336001
-0.0007866348 -0.058431216 0.07227313 0.06700745 0.022670656 -0.014654044 0.0514094 0.024745006
0.0059736385 0.011590045 -0.07504018 0.027048571 0.030806594 0.056872956 0.0396835 0.075471014

net.4.bias f4 [2]
00000000: d6de 43bd f777 043c
-0.047819935 0.0080852425
